神经网络/Net_Saved/Net_data_01/Net.pkl (torch_old, 5478 bytes, 5 tensors)

weight f4 [15, 3]
000000 18 21 e1 3e d3 2b d8 3d 22 26 07 3f a0 3e b2 3e
       0.4397056 0.10555234 0.5279256 0.34813404
000010 65 b6 b1 be d0 60 79 3e 39 1f c0 be df 18 61 be
       -0.34709468 0.24353337 -0.3752382 -0.21982144
000020 c5 14 d7 3d ac 79 30 3e bf 1b df 3e e9 92 32 be
       0.10502008 0.17233914 0.43575856 -0.17438854
000030 af a1 7c bc 63 15 88 3e 67 f7 09 bf 38 42 d6 3e
       -0.015419408 0.26578817 -0.5389313 0.41847396
000040 d7 0f 00 bf ea bf a4 3c 33 73 af bd 3c 65 94 be
       -0.5002417 0.020111043 -0.085668944 -0.28983486
000050 11 96 6d 3d 47 2e f1 3e 1e 76 9a bd 7d 13 b9 be
       0.058004443 0.4710562 -0.0754206 -0.3614768
000060 ec 8f 61 be f9 b4 0e bf 4b 6c 82 3e 3f e4 6a be
       -0.22027558 -0.5574489 0.25473246 -0.22938631
000070 82 51 d6 be 99 12 c8 be b3 9c aa 3e 95 ea 8b 3e
       -0.4185906 -0.3907669 0.33322677 0.2732741
000080 30 d2 db 3e 2e 0d 28 3e 71 c1 3c be df 70 e8 bd
       0.42933798 0.16411278 -0.18433167 -0.113496535
000090 8a e5 2a 3e df eb ec 3e 5e ba 2b 3e d3 8f 96 be
       0.16689125 0.46273705 0.16770312 -0.29406604
0000a0 24 c6 7a be b2 9f 07 bf cc 98 e4 3d 25 17 aa be
       -0.24489647 -0.5297805 0.11161956 -0.33220783
0000b0 e0 cf 00 bf
       -0.5031719

bias f4 [15]
000000 20 63 f9 3e 98 cc c1 be 7a a1 23 bd 43 ad 1f 3e
       0.4870844 -0.37851405 -0.039948918 0.15593438
000010 b4 7c be 3c 7a 20 b7 be de 96 f4 be 81 bc be 3e
       0.023252822 -0.35766965 -0.47771353 0.37253192
000020 47 68 c6 3d 8f b8 db 3e f6 ac 4a be 72 66 e5 3d
       0.09687858 0.42914245 -0.19792542 0.112011805
000030 77 e6 1c be d9 a4 ae bd e2 1c 9d be
       -0.1532229 -0.08527536 -0.30686098

weight f4 [10, 15]
000000 74 d6 b2 3d 90 2f a7 3d 00 88 ae bb 44 da 6d bd
       0.0873231 0.08163369 -0.005326271 -0.058069482
000010 3b fb 22 be 68 d7 36 3e 90 d2 44 be a8 a0 d8 3d
       -0.1591615 0.17855608 -0.19220948 0.10577518
000020 d6 ce b1 bd fa 1f ff bd 50 fd 3d 3d 98 57 09 be
       -0.08682029 -0.12457271 0.046384156 -0.1341232
000030 10 ac 73 3d 60 b0 4f 3d 9d 4f 44 be 49 bc 08 3d
       0.059490263 0.050705314 -0.19170995 0.033382688
000040 4f 52 d6 3d 3b 66 86 3b 42 74 d1 3c be 46 68 be
       0.10464918 0.0041015423 0.025568131 -0.22683236
000050 28 8a 48 bd 46 bd a9 3d 3c 6c 54 bd e2 d0 0c 3c
       -0.04895988 0.08288054 -0.051861033 0.008594723
000060 96 d5 4a 3e 1f 12 ee bd 08 8f 45 3d 44 1e f1 3d
       0.19808039 -0.1162455 0.04823211 0.11773351
000070 ed c7 15 3c 55 ff 61 bd d1 71 5a 3d 64 3c 2a be
       0.009141904 -0.055175144 0.0533312 -0.166246
000080 9a 95 aa bc df f4 45 3e 64 f5 55 3e 00 a6 17 3e
       -0.020823289 0.19331692 0.2089439 0.14809418
000090 3d a1 15 3d 08 d1 0b 3e f9 47 14 be ad 0d 25 be
       0.036530722 0.13653958 -0.1448058 -0.16118498
0000a0 45 2d 54 be 57 55 99 3e 6b 6d 1b 3e e4 14 34 be
       -0.20720394 0.29947922 0.15178458 -0.17586094
0000b0 33 5d 8d 3d 64 b9 10 3e 82 46 6c 3e ce 86 66 3e
       0.06902542 0.14133221 0.23073772 0.22512361
0000c0 12 a4 2a 3e 6e db b0 bd 4d 65 97 bd d4 08 59 3e
       0.1666415 -0.08635603 -0.073923685 0.21194774
0000d0 35 1f 08 3e 87 17 34 be 9e 14 62 3e ef 7a ff 3d
       0.13293155 -0.175871 0.22078177 0.124746196
0000e0 0f 89 02 3e 15 9c 27 be f7 ad 96 3d 6e a5 92 bd
       0.12747596 -0.16368134 0.073574 -0.071604595
0000f0 ec ac 48 3e a8 66 ab bc ea 58 95 3c 18 98 86 3d
       0.19597214 -0.020922974 0.018230874 0.06571978
000100 7f 2d b4 3d 15 73 ac bd 54 38 f7 3d 94 53 10 be
       0.0879774 -0.08420388 0.120712906 -0.14094383
000110 3e 0e a5 bc 1a e8 fb bd a4 77 71 be 93 ae 1b be
       -0.020148393 -0.12300129 -0.23580796 -0.15203314
000120 44 c9 48 3e ff 6f 20 3e 5e 79 60 3e 57 a9 60 3e
       0.19608027 0.15667723 0.21921298 0.21939598
000130 1c 3e 6a be 69 80 2e be 75 b1 23 bd 60 e7 2c be
       -0.22875255 -0.17041172 -0.039964158 -0.16885138
000140 28 3b 38 3e 9b e2 47 be d6 57 01 be e6 df 80 be
       0.17991316 -0.19520037 -0.12631163 -0.2517082
000150 0b 99 17 be 6e 6a 5c 3e 66 f3 58 3e 24 25 42 3e
       -0.14804475 0.21524975 0.21186599 0.1895948
000160 85 16 4b 3e a6 a5 69 3e d1 35 93 bd df 20 05 3e
       0.1983281 0.22817096 -0.07187999 0.1300082
000170 d9 50 3a 3e 07 15 c5 3d 2a 5e 7c 3e c0 fa 0d 3e
       0.18194903 0.09623151 0.24645296 0.13865185
000180 45 ab 21 3e b9 93 95 bd 3c c7 9b 3d 7f 98 5d 3d
       0.1578799 -0.073035665 0.0760636 0.05410051
000190 9f 7b 55 bd ff 65 ec bd a5 f5 16 be ea 08 3f be
       -0.052119847 -0.11542892 -0.14742143 -0.18655744
0001a0 6e a4 28 3e 24 60 1d 3e 0e dc 99 bd 1d 9c b0 bd
       0.16468975 0.15368706 -0.07512675 -0.08623526
0001b0 a2 58 37 3e 75 71 2d 3e 1b 8d 0a 3c 2d 42 fe bd
       0.17904904 0.16937812 0.008456494 -0.12414966
0001c0 4e 18 2c 3e e2 55 e8 3d 46 c3 8a be 05 61 68 3e
       0.16806147 0.11344506 -0.27102107 0.2269326
0001d0 c5 a5 fd 3d 19 5f b9 bd 55 e5 08 3e 31 08 02 be
       0.12385134 -0.090513416 0.13368733 -0.12698437
0001e0 ab 33 16 bd 04 86 59 3e 3f bb e0 3c 44 fc 3a be
       -0.03667037 0.21242529 0.027433036 -0.18260294
0001f0 4e bd b0 bd 6c 02 a9 bd 4d 3c 42 bd d1 37 40 3c
       -0.08629857 -0.08252415 -0.04742079 0.011732058
000200 e2 27 81 3e f4 9d 83 3c 9a 3f 23 be ec d1 5d 3b
       0.2522574 0.016066529 -0.15942231 0.0033847047
000210 74 8c fd 3d 45 0a fa 3d e9 22 72 be b9 9a a6 bd
       0.12380305 0.1220899 -0.2364613 -0.0813498
000220 f4 7b 44 be 11 e9 f6 bd 15 d3 01 3e 4c 29 bd bd
       -0.1918791 -0.12056173 0.12678178 -0.092363924
000230 e0 90 c4 3d cc 69 60 3e 1e 46 d6 3d ec 41 19 be
       0.09597945 0.21915358 0.104625925 -0.14966553
000240 cd 31 06 be 83 c8 09 3d ff 6a 34 be ad a7 04 3e
       -0.13104935 0.03363849 -0.17618941 0.12954588
000250 cc d2 68 be a4 db 6c be
       -0.22736663 -0.23130661

bias f4 [10]
000000 91 73 80 be 3a 03 44 bc 99 d2 5b 3e e0 aa 94 be
       -0.2508817 -0.01196366 0.21467055 -0.29036617
000010 69 34 7c 3e eb bb b6 bd 0d bc b1 3d 33 0e 01 bd
       0.24629368 -0.08922561 0.08678446 -0.031507682
000020 a5 51 66 be 7e 54 0e 3e
       -0.22492082 0.13899419

weight f4 [1, 10]
000000 76 5b 2e 3e e7 d7 85 3e 2b 8f 34 3e 6f ff 13 be
       0.17027077 0.26141283 0.17632739 -0.14452909
000010 ac d2 2a 3e ea eb 5b 3d 08 8f 92 3d 32 2e 22 be
       0.16681927 0.053691782 0.07156187 -0.15837935
000020 8e e6 ba bd c6 4c 54 be
       -0.09126006 -0.20732412
